app/src/main/ml/iris.tflite (tflite, 20204 bytes, 5 tensors)

dense/bias f4 [64]
0.009691762 0.0 0.022325031 -0.001375287 0.062015083 -0.044328824 0.0 0.098986074
0.015140788 0.0 0.0556187 0.0 0.010586285 0.015199892 0.0 0.0
0.0 -0.06896 -0.07659412 -0.0046183197 -0.019954838 0.0 -0.03745463 0.0
0.056362778 0.0 -0.0002453954 -0.048299395 0.0 0.0 -0.016029188 -0.012545313
0.058975883 0.02762884 0.0 -0.0449647 -0.015374905 0.07693025 0.021173654 0.0
-0.008879973 0.008078022 -0.025685417 0.0 0.0 0.0 0.08398225 0.0
0.0 -0.019438013 -0.0028199903 0.0 0.0 -0.05491628 0.093292214 0.034772187
0.0 0.0 0.0 0.0 -0.00065032113 -0.0030777785 0.016398251 0.0
00000000: 32ca 1e3c 0000 0000 fce2 b63c f942 b4ba
00000010: 8703 7e3d 2492 35bd 0000 0000 36b9 ca3d
00000020: 1111 783c 0000 0000 6fd0 633d 0000 0000
00000030: 1972 2d3c f808 793c 0000 0000 0000 0000
00000040: 0000 0000 e73a 8dbd 61dd 9cbd 4655 97bb
00000050: 5478 a3bc 0000 0000 076a 19bd 0000 0000
00000060: a8dc 663d 0000 0000 6aa8 80b9 96d5 45bd
00000070: 0000 0000 0000 0000 a54f 83bc db8a 4dbc
00000080: b290 713d e155 e23c 0000 0000 e82c 38bd
00000090: 07e7 7bbc 9b8d 9d3d 5f74 ad3c 0000 0000
000000a0: 4e7d 11bc ae59 043c 396a d2bc 0000 0000
000000b0: 0000 0000 0000 0000 e3fe ab3d 0000 0000
000000c0: 0000 0000 783c 9fbc 96cf 38bb 0000 0000
000000d0: 0000 0000 e5ef 60bd fd0f bf3d 486d 0e3d
000000e0: 0000 0000 0000 0000 0000 0000 0000 0000
000000f0: 507a 2aba 8eb4 49bb a055 863c 0000 0000

sequential/dense/MatMul f4 [64, 4]
0.12923244 0.25012997 0.13050683 -0.3047348 -0.18048012 -0.1427746 -0.13580936 -0.23093683
0.0682187 0.045603216 0.115418516 0.019848287 -0.03624307 0.10821686 -0.13169286 -0.061377827
0.33910513 0.059637357 -0.12264053 -0.44342571 -0.10054796 0.1367525 0.20205006 0.074725755
-0.1665673 0.08257586 -0.006609708 0.028942943 0.2534665 0.43929052 -0.47192982 -0.08249347
0.12750214 0.27478704 0.018017476 -0.053192116 -0.031077683 -0.21788913 0.12191644 -0.23890197
0.34836188 -0.09045401 -0.083310276 -0.20440587 -0.25779995 -0.099994406 -0.28565353 0.14318436
0.12365114 0.019156702 -0.20127155 0.0018071608 -0.107320495 0.25603613 -0.024567833 0.047022447
-0.29093945 -0.12620372 -0.24719381 -0.2620635 0.01215294 -0.067880526 -0.0565356 -0.009793758
-0.2724613 -0.23967895 0.09886107 0.2807259 -0.040149037 0.08870067 0.46428454 0.3888973
0.061787326 -0.35822394 0.51914966 0.24708556 -0.028192215 0.0782714 -0.15246147 0.18340686
-0.20540203 0.108967 0.16521654 0.24358003 -0.2746178 -0.030973285 0.12388328 -0.038984984
-0.2436324 -0.034989465 0.31280416 0.24377142 -0.15476345 -0.1977971 -0.046670943 -0.15283945
0.33160707 0.14405951 -0.118346974 0.029847944 -0.09466201 -0.120772034 -0.25978145 -0.12224597
-0.03245621 -0.071938284 -0.049454458 0.2675129 -0.041798726 -0.078526355 0.32928643 0.3217184
-0.27960804 -0.11167276 -0.26486745 0.25723028 -0.15125412 -0.2650751 -0.20560399 -0.1770769
0.19107486 -0.041344363 0.1130537 0.11457541 0.20890562 -0.16193631 0.39133954 0.0583158
0.26883847 0.1318037 0.02000859 -0.20190744 0.01227736 0.19229056 0.008877709 -0.24327254
-0.190766 0.15708241 -0.08324915 -0.07617436 -0.069678776 0.07888089 0.38955355 0.36090794
-0.11087162 0.23644446 0.15849434 -0.08110189 0.36364302 0.07752165 -0.41125992 0.0038824945
-0.13437007 0.24620794 0.25721458 -0.2447599 -0.2327069 0.019739538 -0.12363894 0.16441193
-0.13486576 0.15905935 0.06703581 0.12752517 -0.09645094 0.21635668 0.02455841 -0.1657617
0.026668133 0.06372573 0.22548425 0.27804825 -0.20816967 0.0029073954 -0.23056579 0.17056549
-0.02906984 -0.03695059 0.0044926703 -0.06563254 -0.13591695 0.068804264 0.12983477 -0.06660746
0.38469064 0.34379002 -0.5535196 -0.13703363 -0.21670133 0.14162347 -0.109521076 0.027199388
-0.10044348 0.14197865 -0.19844937 0.14360753 0.053269897 0.023172915 -0.23504792 -0.22767244
-0.076594114 0.022553591 -0.03463697 0.2417994 -0.28885186 0.20937568 -0.11927347 -0.067472115
-0.16346116 -0.14172807 -0.07153255 -0.018455714 -0.04004666 -0.111981 0.28417346 0.4182687
0.41557267 0.23734899 -0.4648406 -0.30814433 0.21103036 0.32350016 0.10699938 -0.18288855
-0.04928474 -0.20290364 -0.19865397 0.09476167 -0.22616908 -0.25628942 0.11369702 -0.06960976
-0.008013159 -0.05325249 0.03649068 -0.25281614 -0.2184343 0.04982087 -0.16007777 -0.10919368
-0.08166229 -0.005495966 0.14267045 -0.20447578 -0.101511806 0.09366256 0.11581808 -0.27245796
0.20226815 0.14953719 -0.31544697 0.029773455 -0.063200414 -0.23380974 0.062140793 0.16245368
00000000: 8255 043e 0911 803e 95a3 053e 3306 9cbe
00000010: c8cf 38be 8133 12be 9c11 0bbe b47a 6cbe
00000020: 3fb6 8b3d 70ca 3a3d 8b60 ec3d e098 a23c
00000030: 9d73 14bd cda0 dd3d 7eda 06be 5167 7bbd
00000040: 309f ad3e 4d46 743d f52a fbbd b208 e3be
00000050: 17ec cdbd d908 0c3e 36e6 4e3e d109 993d
00000060: 9e90 2abe 881d a93d 4096 d8bb c019 ed3c
00000070: 5cc6 813e b0ea e03e c9a0 f1be 56f2 a8bd
00000080: ec8f 023e e3b0 8c3e 6399 933c fadf 59bd
00000090: a096 febc 541e 5fbe 54af f93d b8a2 74be
000000a0: 7d5c b23e f43f b9bd 949e aabd c64f 51be
000000b0: 5bfe 83be dec9 ccbd 2e41 92be ec9e 123e
000000c0: cf3c fd3d 84ee 9c3c 211a 4ebe 41de ec3a
000000d0: d9ca dbbd 2b17 833e 7b42 c9bc 9c9a 403d
000000e0: 04f6 94be 8c3b 01be 6020 7dbe 302d 86be
000000f0: 201d 473c f204 8bbd e091 67bd 0076 20bc
00000100: 0c80 8bbe 666e 75be ac77 ca3d 4ebb 8f3e
00000110: 5173 24bd b2a8 b53d b4b6 ed3e 8c1d c73e
00000120: b514 7d3d 2169 b7be fee6 043f ff03 7d3e
00000130: 5cf3 e6bc c14c a03d dc1e 1cbe 02cf 3b3e
00000140: e954 52be 172a df3d 862e 293e 0b6d 793e
00000150: b49a 8cbe b0bb fdbc 84b6 fd3d b8ae 1fbd
00000160: c67a 79be 1d51 0fbd de27 a03e 379f 793e
00000170: 4f7a 1ebe 538b 4abe 082a 3fbd f281 1cbe
00000180: 67c8 a93e 5684 133e e65f f2bd ad83 f43c
00000190: 28de c1bd 5457 f7bd 1302 85be 185c fabd
000001a0: cef0 04bd 6154 93bd c290 4abd 73f7 883e
000001b0: 2435 2bbd 6dd2 a0bd 3b98 a83e 46b8 a43e
000001c0: c928 8fbe b0b4 e4bd b59c 87be b0b3 833e
000001d0: 5ce2 1abe ecb7 87be da89 52be a653 35be
000001e0: 21a9 433e b558 29bd b388 e73d 83a6 ea3d
000001f0: 5beb 553e a2d2 25be a85d c83e 8cdc 6e3d
00000200: 32a5 893e 8df7 063e 0ee9 a33c d3c0 4ebe
00000210: fb26 493c d1e7 443e cf73 113c 701c 79be
00000220: 2a58 43be 36da 203e 887e aabd 4e01 9cbd
00000230: bfb3 8ebd 4e8c a13d 9073 c73e edc8 b83e
00000240: a910 e3bd 7f1e 723e 574c 223e bf18 a6bd
00000250: 6b2f ba3e acc3 9e3d a990 d2be 7371 7e3b
00000260: 4f98 09be ef1d 7c3e a1b1 833e 57a2 7abe
00000270: b84a 6ebe d0b4 a13c 6a36 fdbd 9a5b 283e
00000280: 401a 0abe 74e0 223e 124a 893d f595 023e
00000290: 1288 c5bd 9b8c 5d3e b82e c93c 6fbd 29be
000002a0: 2177 da3c a382 823d 58e5 663e 575c 8e3e
000002b0: 6e2a 55be 008a 3e3b 7019 6cbe b8a8 2e3e
000002c0: e023 eebc 8059 17bd 4037 933b 5a6a 86bd
000002d0: d02d 0bbe 40e9 8c3d 68f3 043e 7e69 88bd
000002e0: 2cf6 c43e 3f05 b03e 76b3 0dbf 8b52 0cbe
000002f0: f4e6 5dbe be05 113e 964c e0bd 40d1 de3c
00000300: 50b5 cdbd da62 113e 5036 4bbe da0d 133e
00000310: 8931 5a3d 20d5 bd3c 67b0 70be f722 69be
00000320: 60dd 9cbd 4fc2 b83c 7fdf 0dbd 439a 773e
00000330: 64e4 93be 9466 563e a645 f4bd d22e 8abd
00000340: 5d62 27be 2a21 11be a87f 92bd 7030 97bc
00000350: f707 24bd 4b56 e5bd 2f7f 913e 5127 d63e
00000360: f1c5 d43e 9d0b 733e 96ff edbe 18c5 9dbe
00000370: 5818 583e d0a1 a53e 7e22 db3d 2347 3bbe
00000380: ccde 49bd f9c5 4fbe f26b 4bbe 6812 c23d
00000390: de98 67be 5e38 83be fcd9 e83d 908f 8ebd
000003a0: a049 03bc 481f 5abd 4077 153d 1e71 81be
000003b0: 3ead 5fbe f810 4c3d 6deb 23be f0a0 dfbd
000003c0: 8f3e a7bd 8117 b4bb 3418 123e 1962 51be
000003d0: 6ce5 cfbd 28d2 bf3d 0832 ed3d 9c7f 8bbe
000003e0: 621f 4f3e 4720 193e 4482 a1be 76e7 f33c
000003f0: 386f 81bd d26b 6fbe 5887 7e3d 425a 263e

sequential/dense_1/MatMul f4 [64, 64]
0.1927428 -0.07993384 -0.14768383 -0.0844687 0.10967059 0.09755823 0.08750428 0.175797
-0.04034969 0.13645865 0.21368064 -0.038241774 -0.21245365 -0.007345445 0.025254875 0.06104736
-0.12406076 -0.18368925 -0.11355003 -0.061012603 -0.05605586 -0.11535468 -0.06473779 0.034036532
0.015781589 0.15219088 0.17050356 -0.22589046 -0.20405592 0.12531938 -0.21242969 0.04926818
0.00294786 0.2029647 -0.1779705 -0.16727991 -0.04628028 -0.051700953 0.011879444 0.18878956
-0.08550373 0.11397753 -0.06603906 0.13902877 0.16014723 0.19771977 0.14031261 -0.15546522
0.033746466 0.02054902 0.14121827 0.02868791 -0.20054004 0.09259973 0.1328995 0.1415483
0.14040886 -0.051734447 -0.19796285 -0.052054226 0.08414742 0.015171952 -0.03973988 0.18859692
-0.130369 -0.19675842 0.011225096 0.18562639 -0.15406805 0.2270652 0.19287427 -0.27892125
-0.02733695 -0.20780094 0.05692426 -0.20002808 -0.122396894 0.16714098 -0.12614095 0.084081545
-0.0908107 0.1240327 0.20275943 -0.19126993 0.15017746 0.12827112 0.11507044 0.14185165
-0.16791748 -0.11021109 0.012675649 0.24825263 0.02688092 0.025470018 0.18853913 0.20937268
0.16546793 -0.18194179 0.17687277 0.27708966 0.12098193 -0.048466116 -0.18689035 0.1856059
0.053616904 -0.11269213 -0.1406151 0.045594975 -0.09645469 -0.017463997 -0.30516225 0.11821897
0.05171092 -0.0784834 -0.029898059 0.039405778 -0.20454842 0.1575828 0.031736106 -0.15495484
0.19074391 -0.20749809 -0.10195497 0.14131756 -0.046662677 -0.1822971 -0.24067903 0.05004956
-0.062173292 -0.1339263 -0.052322876 -0.035041977 -0.09778573 -0.10511137 -0.08199777 -0.23426129
-0.16828226 0.1025805 -0.17574699 0.18392874 -0.009078518 0.14019954 -0.106827244 -5.6102872e-05
-0.14965466 0.067457415 0.18075596 0.09182351 -0.111490965 0.1699319 0.0822649 -0.1684497
-0.17762153 0.20856778 -0.14446458 0.24337782 0.17077829 -0.05126369 -0.11463013 0.12211533
-0.029634928 -0.2045824 0.014452636 0.07488833 0.16696051 -0.033283528 -0.20127326 0.14631526
-0.063825965 0.20741773 0.021119585 -0.02150561 -0.2122537 -0.13735047 -0.13401756 -0.010895669
-0.048435524 -0.15679339 -0.06958846 0.2051342 0.020727098 -0.06407634 -0.117122695 -0.04948054
-0.07972829 0.083554134 -0.10106934 0.14368786 -0.16812287 -0.11224699 0.13785337 -0.016535267
0.018424774 0.1773252 0.15984887 0.08398171 0.16263124 0.090492025 -0.0687059 -0.03985983
-0.079127036 0.21549101 -0.04037497 0.17033432 -0.14965652 0.13068706 0.18219407 0.16588165
0.18807562 -0.22161376 0.14971402 -0.20159662 -0.2425243 -0.12916234 -0.022845218 0.08965491
0.18734646 -0.05874929 -0.048696972 0.12764792 -0.04306367 0.022675201 -0.029603742 0.077910714
0.041276433 0.11605313 0.14843114 0.11720992 0.047950514 0.1859729 0.11197734 0.0011070818
0.040013645 -0.08650911 0.10748327 -0.021236315 -0.12785524 -0.11521923 0.017907199 0.036288723
0.17479049 -0.075245544 0.0153471045 0.03538482 0.19403778 -0.02548609 0.05870251 -0.09255109
0.20664798 -0.01834622 -0.010722846 0.025713146 -0.11308027 0.025431598 0.08648821 -0.070521906
00000000: 5e5e 453e 5ab4 a3bd 6e3a 17be edfd acbd
00000010: f99a e03d 9ccc c73d 7235 b33d 2104 343e
00000020: b745 25bd d1bb 0b3e 19cf 5a3e 68a3 1cbd
00000030: 738d 59be 0fb2 f0bb 50e3 ce3c cc0c 7a3d
00000040: 9113 febd 0919 3cbe eb8c e8bd 5ae8 79bd
00000050: d49a 65bd 133f ecbd 3f95 84bd e469 0b3d
00000060: 6448 813c edd7 1b3e 7c98 2e3e d44f 67be
00000070: 09f4 50be b953 003e 2b87 59be 6ecd 493d
00000080: e230 413b fad5 4f3e e63d 36be 6d4b 2bbe
00000090: 6490 3dbd 61c4 53bd 00a2 423c 0d52 413e
000000a0: 941c afbd 0d6d e93d 7d3f 87bd 8f5d 0e3e
000000b0: a3fd 233e 0d77 4a3e 1cae 0f3e 4632 1fbe
000000c0: bc39 0a3d 6b56 a83c 869b 103e e802 eb3c
000000d0: 5e5a 4dbe eda4 bd3d ce16 083e 0af2 103e
000000e0: 57c7 0f3e 80e7 53bd c6b6 4abe d036 55bd
000000f0: 7c55 ac3d c793 783c 49c6 22bd 8d1f 413e
00000100: 737f 05be 0a7b 49be 77e9 373c d814 3e3e
00000110: 04c4 1dbe c883 683e d580 453e c4ce 8ebe
00000120: bdf1 dfbc c5c9 54be 6a29 693d 29d4 4cbe
00000130: 39ab fabd 0127 2b3e 182b 01be f232 ac3d
00000140: f6fa b9bd db04 fe3d 2ba0 4f3e 44dc 43be
00000150: 1fc8 193e 8159 033e 0daa eb3d 8f41 113e
00000160: 8ff2 2bbe 5ab6 e1bd 86ad 4f3c f035 7e3e
00000170: 6035 dc3c 80a6 d03c 6710 413e cb65 563e
00000180: 6d70 293e f34e 3abe 231e 353e b2de 8d3e
00000190: 60c5 f73d 6884 46bd 2f60 3fbe 790f 3e3e
000001a0: 669d 5b3d 22cb e6bd 68fd 0fbe ccc1 3a3d
000001b0: 098a c5bd a810 8fbc 3a3e 9cbe ca1c f23d
000001c0: d4ce 533d e8bb a0bd c6ec f4bc f467 213d
000001d0: 2475 51be 635d 213e b8fd 013d 7bac 1ebe
000001e0: 5f52 433e 617a 54be c4cd d0bd 8db5 103e
000001f0: 5d21 3fbd 17ac 3abe 9074 76be c400 4d3d
00000200: 6ca9 7ebd fa23 09be 8350 56bd 2d88 0fbd
00000210: e343 c8bd a144 d7bd 72ee a7bd 31e2 6fbe
00000220: 2f52 2cbe ba15 d23d 05f7 33be d157 3c3e
00000230: 10be 14bc 7890 0f3e 3ec8 dabd 0050 6bb8
00000240: 123f 19be 1d27 8a3d 1718 393e f70d bc3d
00000250: 6055 e4bd a102 2e3e 807a a83d 147e 2cbe
00000260: 6be2 35be cb92 553e 86ee 13be 0938 793e
00000270: 81e0 2e3e e0f9 51bd 34c3 eabd 9a17 fa3d
00000280: f3c4 f2bc 0c7e 51be c0ca 6c3c 0e5f 993d
00000290: b2f7 2a3e 4f54 08bd 941a 4ebe abd3 153e
000002a0: 30b7 82bd 5065 543e fb02 ad3c 882c b0bc
000002b0: 0959 59be 9aa5 0cbe e63b 09be c083 32bc
000002c0: 5464 46bd 728e 20be 6584 8ebd b30e 523e
000002d0: e0cb a93c 753a 83bd 06de efbd 1bac 4abd
000002e0: 9648 a3bd 6e1e ab3d 71fd cebd e922 133e
000002f0: 6728 2cbe c0e1 e5bd 6f29 0d3e f874 87bc
00000300: 8def 963c bd94 353e 6caf 233e 9afe ab3d
00000310: ce88 263e e253 b93d aeb5 8cbd 1044 23bd
00000320: 5b0d a2bd ada9 5c3e 3960 25bd 1f6c 2e3e
00000330: 8f3f 19be d4d2 053e 1591 3a3e e1dc 293e
00000340: e596 403e b8ee 62be a24e 193e 586f 4ebe
00000350: 4a58 78be 2243 04be e525 bbbc fe9c b73d
00000360: c0d7 3f3e 18a3 70bd 7a76 47bd 23b6 023e
00000370: 8863 30bd 58c1 b93c 8c83 f2bc a78f 9f3d
00000380: 7a11 293d 43ad ed3d 55fe 173e c10b f03d
00000390: c267 443d ae6f 3e3e 6054 e53d 801b 913a
000003a0: 59e5 233d b02b b1bd 3020 dc3d c8f7 adbc
000003b0: 7cec 02be 0ff8 ebbd 1eb2 923c 7ca3 143d
000003c0: 47fc 323e 561a 9abd 6c72 7b3c acef 103d
000003d0: d7b1 463e 34c8 d0bc 0b72 703d 6d8b bdbd
000003e0: 879b 533e d04a 96bc e0ae 2fbc 60a4 d23c
000003f0: a196 e7bd ed55 d03c bb20 b13d ca6d 90bd

sequential/dense_2/MatMul f4 [3, 64]
0.29697686 -0.50485253 -0.054567777 0.14860588 -0.24965149 -0.10511516 -0.12722312 0.28675455
0.18987857 -0.39881283 -0.3472657 -0.08325965 -0.13863663 -0.24885698 0.1683471 -0.18301047
0.48014286 -0.23762882 -0.2551828 0.038338397 -0.08905044 0.085674874 0.15721315 -0.14605395
-0.015959835 0.33175048 -0.06700655 0.15699887 -0.25398824 -0.1112063 -0.28133693 0.24816376
0.052942574 0.16643597 0.26690987 0.04655966 0.17984919 -0.4563228 0.105714664 0.12304004
0.30878982 0.18009843 -0.047153257 0.024474325 -0.19052811 -0.19264321 0.06525908 0.1411509
-0.23540479 -0.10492045 0.031044679 -0.09522696 -0.038562123 -0.09954444 -0.10593524 -0.17019115
0.0639097 0.19124894 -0.37443683 0.094317645 0.26596582 -0.29394755 -0.25150946 0.18479227
0.27253762 0.11016607 -0.27267283 0.10868882 0.12991221 0.2001154 -0.22601946 -0.10148273
0.038808428 0.000867405 -0.047752995 -0.030457474 -0.047965698 -0.22939277 0.22319669 -0.25645941
0.2529811 0.104936704 0.013757326 0.101131365 -0.020252753 -0.17383724 -0.17751041 0.25930104
0.17444628 -0.12317515 0.12540144 -0.2710949 -0.053567138 -0.19489571 0.15065512 0.1906586
-0.074713975 -0.11900896 -0.08292018 0.00089564605 -0.059205722 -0.068808675 0.27854103 -0.1766691
0.22851187 -0.2822924 -0.2407482 -0.106230475 0.039933372 -0.2877952 0.0041553974 -0.32175937
-0.22845389 -0.21343721 0.062191576 0.07409036 0.09452357 0.12184633 0.075143285 -0.16220535
-0.1603795 0.02442845 -0.119141124 -0.23824671 0.13103683 -0.028325632 0.14241539 0.27715096
0.002201464 0.35841912 0.36649904 -0.23176521 0.36421296 0.27810296 -0.32654074 -0.36461994
-0.01974391 0.45044258 -0.085162595 -0.23472622 0.3401423 0.18651268 -0.14587367 0.11291601
-0.24521203 0.28460455 -0.106198974 0.2509457 0.06314814 -0.32309085 -0.05064682 0.26512355
-0.039391767 -0.024872474 0.28957698 0.28640252 0.37204668 0.38111457 0.014744821 -0.040162712
0.23150104 0.032821275 0.19349454 0.18591028 -0.14237803 0.15023561 -0.38048932 -0.026584972
-0.15257838 0.07314314 -0.10639359 -0.007535506 -0.2741352 0.23984885 -0.0033131063 -0.08755101
-0.16739155 -0.23402466 -0.15460531 0.48372597 -0.23720604 -0.04156667 -0.32773086 0.07716845
-0.29762867 0.38949484 0.33055678 0.15375656 -0.31918925 0.17217524 0.20698874 0.070724644
00000000: 5a0d 983e 043e 01bf 7682 5fbd 242c 183e
00000010: a4a4 7fbe 9e46 d7bd c746 02be 7ed1 923e
00000020: 876f 423e 3231 ccbe cfcc b1be 0984 aabd
00000030: c3f6 0dbe 5dd4 7ebe 2f63 2c3e 1967 3bbe
00000040: 49d5 f53e f854 73be 52a7 82be b908 1d3d
00000050: 1460 b6bd 4f76 af3d 7cfc 203e 2b8f 15be
00000060: 33be 82bc 33db a93e bb3a 89bd 50c4 203e
00000070: bf0a 82be 21c0 e3bd 650b 90be a41e 7e3e
00000080: 50da 583d 316e 2a3e 69a8 883e 58b5 3e3d
00000090: 632a 383e 24a3 e9be ee80 d83d 6bfc fb3d
000000a0: b319 9e3e b96b 383e c623 41bd 617e c83c
000000b0: cd19 43be 4344 45be 8da6 853d dd89 103e
000000c0: f40d 71be 88e0 d6bd 6951 fe3c 5a06 c3bd
000000d0: 51f3 1dbd f5dd cbbd 93f4 d8bd 9746 2ebe
000000e0: 17e3 823d c3d6 433e 2fb6 bfbe 9c29 c13d
000000f0: ac2c 883e 4b80 96be d9c5 80be 2f3a 3d3e
00000100: 0d8a 8b3e c09e e13d c69b 8bbe 3e98 de3d
00000110: b507 053e 0deb 4c3e a571 67be 2dd6 cfbd
00000120: 96f5 1e3d 9062 633a a598 43bd f481 f9bc
00000130: ae77 44bd f0e5 6abe ac8d 643e a64e 83be
00000140: bd86 813e 0ee9 d63d 6866 613c f61d cf3d
00000150: 1ae9 a5bc 6402 32be 4ac5 35be 1bc3 843e
00000160: 0ca2 323e 4143 fcbd 3c69 003e f3cc 8abe
00000170: 3769 5bbd be92 47be 5645 1a3e 023c 433e
00000180: a403 99bd f8ba f3bd 0ed2 a9bd cac9 6a3a
00000190: b381 72bd 90eb 8cbd ee9c 8e3e bfe8 34be
000001a0: 04ff 693e a188 90be b286 76be 5d8f d9bd
000001b0: 2d91 233d e459 93be 002a 883b a5bd a4be
000001c0: d1ef 69be 498f 5abe 98bc 7e3d b0bc 973d
000001d0: 9395 c13d 928a f93d b9e4 993d 2919 26be
000001e0: 863a 24be 2c1e c83c 4300 f4bd f2f6 73be
000001f0: 852e 063e 280b e8bc 57d5 113e bbe6 8d3e
00000200: 7046 103b b682 b73e c3a5 bb3e dc53 6dbe
00000210: 1f7a ba3e 8363 8e3e 5930 a7be 77af babe
00000220: fbbd a1bc 69a0 e63e ba69 aebd 125c 70be
00000230: 2227 ae3e 2efd 3e3e e85f 15be 8240 e73d
00000240: dd18 7bbe b0b7 913e d97e d9bd f47b 803e
00000250: d053 813d 2a6c a5be 0a73 4fbd 46be 873e
00000260: 4359 21bd 5cc1 cbbc 6f43 943e 5aa3 923e
00000270: e77c be3e 7321 c33e 4394 713c a881 24bd
00000280: 9c0e 6d3e 9a6f 063d 6f23 463e 445f 3e3e
00000290: 8ccb 11be 5dd7 193e 7fcf c2be bac8 d9bc
000002a0: 823d 1cbe 12cc 953d e2e4 d9bd 68ec f6bb
000002b0: 735b 8cbe f09a 753e b320 59bb f24d b3bd
000002c0: b168 2bbe 29a4 6fbe db50 1ebe eeaa f73e
000002d0: 24e6 72be d041 2abd 57cc a7be 7e0a 9e3d
000002e0: c962 98be de6b c73e bd3e a93e 5c72 1d3e
000002f0: c66c a3be b54e 303e dbf4 533e 15d8 903d

sequential/dense_2/MatMul;sequential/dense_2/BiasAdd f4 [3]
0.21092328 0.24735114 -0.48030716
00000000: 46fc 573e 9e49 7d3e d2ea f5be
